models/ecg_cnn.pth (torch, 39501 bytes, 8 tensors)

net.0.weight f4 [16, 1, 7]
00000000: 5221 0abe 81f0 dbbc d92d 70be 1ecc 19be
00000010: 0d4f 663e 3f30 0f3d 1fc2 963e 350d 82be
00000020: 10dc ac3e c3ba 263e dfb2 903e 5333 5bbe
00000030: 19d5 1ebe f2bf b6be e5d3 3fbe d92e a5be
00000040: c01f a2be e393 6c3e c7da ecbd f85f 98be
00000050: 33c4 b7be 381e 083e fed0 a53e 73e5 8fbc
00000060: b31b 96be 22f7 653e 67bd af3d b69f 5d3e
00000070: c308 1e3e e3ad 413e 15eb 08be 8207 93be
00000080: 900b bb3e 33d3 f43d 1759 d13c 0d2a ac3e
00000090: 2a85 823e 4a3c babe f6f4 ad3e 07fd 1d3d
000000a0: 7cdb 96be c880 aebe c662 b43d 5eb8 edbd
000000b0: 6467 bb3e 0641 8d3e e065 e03c 9c97 263e
000000c0: 57b6 283e 8a72 a03e 6d48 243d 2262 32be
000000d0: 6dbb 0fbe a965 323e 6046 a8be 5d24 22be
000000e0: d485 06be b547 9b3e 0bae 7f3e 36d6 423e
000000f0: 1748 88be c8cd aebd 8aeb 4a3e 0d77 cd3d
00000100: 59bc 5f3e d125 b8be 39f2 543e ae19 043e
00000110: 2409 45be b41a 65be 1319 a1be 612e 39be
00000120: 9cca 343d f40a 3b3e c1f3 40be 83c3 a83e
00000130: 5829 803e 5ef2 76be de94 f9bc 9762 a83e
00000140: cc28 8a3e 97b9 5abc a4e6 82be 3446 8cbe
00000150: 2a9d 2cbe 35c0 a93e 2705 c1bd 4ba5 9f3e
00000160: 3a89 aabc 79ff 4fbd d92c 83be a13a 99be
00000170: 015a 28be a6e2 b23e 8b59 353e ea01 8fbd
00000180: ad04 bc3e 59f0 6abd 6c19 cebd 519b 6cbd
00000190: 901d 633e fc98 b3bd 82ae 9bbd 03c8 5dbe
000001a0: ee4b e7bc 9be6 ef3d 07e9 bebe 3982 a3be
000001b0: 033c 81be 5853 5a3e fe7d ab3e 32cf 30be
-0.13489273 -0.02684808 -0.2345499 -0.15019271 0.22491093 0.03495812 0.29444978 -0.254007
0.33761644 0.16282181 0.28261468 -0.21406297 -0.15510978 -0.35693318 -0.18733175 -0.32262304
-0.31664848 0.2310329 -0.11565166 -0.29760718 -0.35891876 0.13292778 0.3238601 -0.017565465
-0.29318008 0.22457555 0.085810475 0.21642956 0.1543303 0.18913989 -0.13370927 -0.28716666
0.3653226 0.119543456 0.025555177 0.33625832 0.2549222 -0.36374122 0.33975953 0.038571384
-0.29464328 -0.34082627 0.08807902 -0.11607431 0.36602318 0.2758867 0.027392328 0.16268772
0.16475807 0.31337386 0.040108133 -0.17420247 -0.14036341 0.17421593 -0.32866192 -0.15834184
-0.13136989 0.30328146 0.24968736 0.19027027 -0.266175 -0.085353434 0.19816414 0.10032473
0.21849193 -0.35966352 0.20795526 0.12900421 -0.19241768 -0.22373468 -0.31464443 -0.18084098
0.044138536 0.18265897 -0.18842985 0.32961664 0.25031543 -0.24115893 -0.030466493 0.32887718
0.2698425 -0.013349912 -0.2556659 -0.2739731 -0.16856828 0.33154455 -0.09424811 0.31180796
-0.020817388 -0.050780747 -0.25620154 -0.29927543 -0.16440584 0.34938544 0.17709939 -0.06982787
0.36722317 -0.05735812 -0.100634426 -0.05776531 0.22179246 -0.08769414 -0.07601644 -0.2165833
-0.028234448 0.117139064 -0.3728716 -0.3193529 -0.25241098 0.21320856 0.33494562 -0.17266539

net.0.bias f4 [16]
00000000: 2b7a 46be af09 ab3e 8621 3abe 0fc9 443e
00000010: 8fb4 7bbe c76f 39be 0c15 d6bd 7364 623e
00000020: 0b0e 19be 4041 7b3d 1588 3abe b198 21be
00000030: a974 bdbe 763a 98bd 9070 963e 74ab a73e
-0.19382541 0.33405825 -0.1817685 0.19217323 -0.24580596 -0.18109046 -0.10453233 0.22108631
-0.14946763 0.061341524 -0.18215974 -0.15780903 -0.37003067 -0.074330255 0.29382753 0.32747996

net.3.weight f4 [32, 16, 5]
00000000: fcbe 86bd 4d34 51bd d0b2 c73c d759 ba3d
00000010: b6df c73d 16b7 bd3d bd8b 63bd e8f0 b53d
00000020: e665 2d3d 8009 96bc bfee f03b 8b7b 86bd
00000030: 8a5f 9b3d 95ee a9bd 38aa edbc 9836 b53c
00000040: e381 cebd d56c 99bd ca08 d8bd bdb4 753d
00000050: 1c5a a3bd 434e c7bd 9bd1 013c 3fb9 56bd
00000060: 798d 85bc 5b25 05bd f04f b83d fbeb ddbd
00000070: fe86 95bc f485 babd acbf c6bc efd2 7dbc
00000080: 1a15 9fbd 72c4 7fbd ba50 9c3d f3b0 b73c
00000090: aa78 e4bd ba84 0a3b 76df 853d 67b6 a53b
000000a0: fb85 a03d fe03 22bd c05b 623b f398 d93d
000000b0: 7615 a4bd 7d5d dbbd 5d57 963d 2d03 18bd
000000c0: 8968 a73d 96d9 ccbd 367f 36bc 4004 9cbd
000000d0: 99a4 8bbd b222 893d 141d d23d dbcc 263d
000000e0: b5dd 95bd 5b19 313c e3f8 503c e790 5c3d
000000f0: 44ae 5e3c ad99 cd3d c1fa 2abd 7614 17bd
00000100: fc8d 51bd 4d94 b9bd e02a fc3d 8a52 fb3c
00000110: fd22 e1bd b6f3 bd3d d548 e2bd b066 3dbd
00000120: 572a b2bd 1585 adbd 6260 e9bd c661 3bbd
00000130: 837d cd3c 3425 bd3d a6c4 bc3d f414 d2bc
00000140: 9848 063d 5696 4a3d afb2 e63c 0260 cabd
00000150: d0d9 663d df63 be3d f7dd 0f3d 8e00 873c
00000160: 8a27 8c3d 7e98 4fbc 2299 373d bd09 7abd
00000170: d470 32bd 1c29 a9bd e5ec 593d e49c cb3d
00000180: b785 d8bd fe1e 40bc ef6a d3bd c7f9 98bd
00000190: 94c7 213d 93c9 90bd 1a06 493d af8f 8bbd
000001a0: 04c5 c03d 07b1 493d 153d 01bd f22e a43d
000001b0: 145f e63d 35ac dc3d d0b3 c1bd 1dce 893c
000001c0: cb4d 6bbc a6c0 103d ff84 c23d 60c7 653c
000001d0: 7eee 7a3b eea9 503d ea87 14bd 8b05 883d
000001e0: 2ea8 003e d273 8abd c86d 03bd 86b7 49bc
000001f0: e87a 32bc 1d23 153d bb69 aabd 2fbd bb3d
00000200: f8f2 143c c200 c33c 8326 2b3d 3521 323d
00000210: 053e a4bd a679 b33d 4a99 b63d 663e c7bc
00000220: 31db d1bc daff 93bd 82b6 923d d00a 99bd
00000230: 2a10 1f3c 6f5d 76bc 6dfa abbd 1052 e3bd
00000240: bc3e c83c 2a27 7a3d 315d 6dbd e888 a93d
00000250: c0bd 933d c5cc babd 6cc5 0abd 6dd9 d03d
00000260: c29d 8abd a093 79bd a1f0 09bd f300 703d
00000270: 60a2 5c3c 3966 d9bd 8894 56bd 83f3 a9bc
00000280: 8471 9b3c 86cc b3bd b7f9 98bd 958c 3dbc
00000290: b1fd 6f3b 43c7 37bd 492b 9b3c 791a 5d3c
000002a0: 91a4 f3bc 6309 8dbd 9162 a03d 550c b93d
000002b0: 3fad 8a3d c52a e0bd 3cf4 85bb 0975 b9bc
000002c0: b6af debd 35a4 843d 2a53 893d d002 8fbd
000002d0: 6693 d0bd 961f f13c 3630 b63d ed54 3d3c
000002e0: 32a0 33bd 8110 2b3d 8c4b 54bd 5283 873d
000002f0: 0d5e 963d 5122 6d3d a704 823d d5c0 7ebd
00000300: a6ed d6bd 2082 563d 1e0e 15bd d7d0 4cbd
00000310: 8194 33bb 4f56 dbbd ad0d 6fbd 915d 21bd
00000320: 50cb 943d de7f a9bd f2c2 0d3d 3646 803c
00000330: d766 2abd 11fd 98bd 7602 c0ba 3904 febd
00000340: 6219 4b3a 513e 2b3d 99aa cbbd ee1d 203d
00000350: 48e9 0ebc a4bb 333d aa84 6dbd 8dc8 a4bd
00000360: 00c3 eebd 5c2c 643d 64ff 963d 1202 893d
00000370: 3f91 b63c d092 4bbd 82b4 d2bc a2d6 aabd
00000380: 5673 113c 0064 7f3d 2cc8 dabd 4bda a2bd
00000390: a414 e9bd 298d a2bd 23ec c8bd d48d 8fbd
000003a0: b2d6 c7bc e11d 7fbd 9fc5 a13d 60b5 9f3b
000003b0: 431c f23b 03c6 313d a87d edbd 894b d93c
000003c0: 14a4 1f3d 9f6a a1bd 76b3 4abd b2e1 d8bd
000003d0: 7f39 c9bd 61c5 91bd ee32 e53c e834 6abd
000003e0: 822d ba3d 3b47 cdbd 769d 3ebd 2290 9d3d
000003f0: 4dbc 373a 95ea ce3d 3154 aa3d a04e 47bd
-0.06579396 -0.05107527 0.024377257 0.09099167 0.09759466 0.092634365 -0.055553187 0.0888384
0.042333506 -0.018315077 0.0073526795 -0.06566533 0.07586582 -0.08297459 -0.02901183 0.022120759
-0.10083368 -0.07491461 -0.105485514 0.05998682 -0.079761714 -0.09731724 0.007923509 -0.05242276
-0.016302811 -0.032506328 0.08999622 -0.10836025 -0.018252846 -0.09107581 -0.024261318 -0.015492185
-0.07767697 -0.062443204 0.07632585 0.022423243 -0.11155827 0.002113624 0.065367624 0.0050571444
0.07838055 -0.03955459 0.003453955 0.10624876 -0.08011906 -0.10711191 0.07340882 -0.037112404
0.081742354 -0.10002439 -0.011138728 -0.07617998 -0.06818504 0.06696071 0.102594525 0.04072271
-0.07317678 0.010809268 0.012754652 0.053849127 0.013591353 0.10039077 -0.041743044 -0.036884747
-0.051160797 -0.09061489 0.12312865 0.030679006 -0.109930016 0.09275 -0.11049048 -0.04624051
-0.08699482 -0.08472649 -0.11395337 -0.04574754 0.025084263 0.092356116 0.09217195 -0.025644757
0.032784075 0.049459778 0.028161375 -0.09881593 0.056360066 0.09296393 0.03512379 0.016479757
0.06843479 -0.012670634 0.044823773 -0.061044443 -0.043564633 -0.08259794 0.053204436 0.09942034
-0.10572379 -0.011726139 -0.1032313 -0.07469516 0.039496973 -0.07069697 0.049078085 -0.06814515
0.09412578 0.049241092 -0.031552393 0.080167666 0.112486035 0.107750334 -0.09458125 0.016821915
-0.014361809 0.035339974 0.09498023 0.0140245855 0.0038289125 0.050943308 -0.03626243 0.06641682
0.12564155 -0.06760372 -0.032087117 -0.012311822 -0.010893561 0.03641044 -0.08320948 0.09166943
0.009091131 0.023804072 0.041784775 0.0434887 -0.08019642 0.08763437 0.08915956 -0.024321746
-0.025617214 -0.07226534 0.07163717 -0.074727654 0.009708444 -0.015036925 -0.08397374 -0.110996366
0.024443977 0.061072506 -0.057950202 0.08278066 0.07213926 -0.09121088 -0.033879682 0.10197721
-0.06768371 -0.0609318 -0.033676747 0.058594655 0.013466448 -0.106152005 -0.052387744 -0.020745998
0.018975027 -0.08779244 -0.07469504 -0.011569162 0.0036619718 -0.044867765 0.018941538 0.013495081
-0.029741557 -0.06886556 0.078313 0.09035555 0.06771325 -0.10945658 -0.004087953 -0.022638815
-0.10873358 0.064766325 0.067053154 -0.06982958 -0.10184364 0.029434007 0.08895914 0.011555892
-0.043853946 0.041763786 -0.05182986 0.06616844 0.073421575 0.057894055 0.063485436 -0.062195618
-0.104945466 0.05237019 -0.036390416 -0.050003853 -0.0027401748 -0.107098214 -0.05836265 -0.039395873
0.07265341 -0.08276342 0.034609742 0.01565848 -0.041601982 -0.074701436 -0.0014649171 -0.12403149
0.0007747618 0.041807476 -0.09944648 0.039091043 -0.008722611 0.04388012 -0.057987846 -0.080460645
-0.11658287 0.055706367 0.07372931 0.06689848 0.022286056 -0.04970056 -0.025720838 -0.08341719
0.008877596 0.062351227 -0.10682711 -0.07951792 -0.1138089 -0.079370804 -0.098106645 -0.070094734
-0.024394367 -0.062284354 0.07899021 0.0048739165 0.007388623 0.04340173 -0.11596233 0.026525276
0.038974836 -0.078816645 -0.049487554 -0.10589923 -0.0982542 -0.07117725 0.027978387 -0.05717936
0.09090711 -0.10023352 -0.046536885 0.07693507 0.0007008955 0.10103337 0.083168395 -0.048658967

net.3.bias f4 [32]
00000000: bb42 cc3d ee49 cbbd 2abb 8b3d c251 8d3d
00000010: 0bf0 89bd 865e 163d 4f33 973d c764 d4bd
00000020: d8b8 293d 7239 d83c ab57 cd3b 3c21 b63d
00000030: d286 ccbd 3aa0 983d 6239 243d cf17 d5bd
00000040: ce0c fcbb 09f1 de3b 2e1c 493d 320e ca3d
00000050: 0e5c 973c a459 99bd 8ad0 57bd 27a1 303d
00000060: 4c78 4a3d 61cd b9bd d8f3 d7bd 7a5d 083c
00000070: ee40 443b e1d1 c93d bdeb a43d 02ac b43d
0.09973665 -0.0992621 0.06822808 0.0690036 -0.06735238 0.03671124 0.07382833 -0.10370784
0.041436046 0.02639458 0.0062665544 0.08893058 -0.099866524 0.07452436 0.040093787 -0.10404932
-0.007691956 0.006803636 0.04909914 0.09865989 0.018476512 -0.07487801 -0.052689113 0.043122437
0.04943113 -0.09072376 -0.105445564 0.008323068 0.0029945928 0.09854484 0.08052776 0.088218704

net.6.weight f4 [64, 32, 3]
00000000: 7aa3 f8bd 7a6d 42bb ef41 f1bc 40d1 b93c
00000010: 0062 b33d fbc8 4fbd 389c c93c a562 2f3c
00000020: 99c5 953d 55b2 c9bd e7b0 cf3c 592e 8e3c
00000030: 1582 cf3d 1621 79bd f933 83bd 46af b2bd
00000040: 4eae a4bd 1afa f0ba 684d 28bd 5c08 483d
00000050: 5c60 6d3d cd4c 093e 42a5 783d fb8c 013d
00000060: 4fd9 b83d bc7a 073e 2993 663d b5ee 9cbd
00000070: 7098 263d d146 56bd ccad d43d b1c9 3b3d
00000080: be1d 66bd 9248 3ebd d700 4bbd 76dd ed3d
00000090: 8a47 c03c 9f6b 07bd 65be 613d 3dba aebd
000000a0: 9817 9ebc 7685 883b bff5 50bc 0aa2 f23d
000000b0: ff6a b13d 7929 9a3c 8949 ea3c 48d0 c7bc
000000c0: d663 e63c d4a5 86bd 71fd 73bd 630e fe3d
000000d0: 2c0f bf3d 30ff c03d fa64 5ebd c850 92bd
000000e0: 9442 4a3d 4cd5 143d 39a3 f1bd f7e5 b73d
000000f0: 4c04 f7bc 7c16 cb3d 2fea 1abc df2d a2bd
00000100: d116 c03d 3112 b0bd ccad c5bd c1ad d7bd
00000110: d81a e83c ccf7 d9bb 4319 383d a461 94bc
00000120: 3d2e 68bd 055f ed3d 1959 13bd b1dd 233d
00000130: 1023 68bd 2730 923d b864 fa3c 56c2 22bd
00000140: cd68 9dbd 0594 d0bc 8ba8 49bd 5056 bf3d
00000150: 89d1 82bc deff 073d d1a6 19bd d93b 8cbd
00000160: c313 a6bd ac36 b43c 125a 1dbd ec93 4d3c
00000170: 9c3a cc3d 9d59 59bc 86f5 123c 080e ac3c
00000180: 1e6a a6bd a2d3 86bc 7822 40bd ef5f 273d
00000190: 1cf0 d0bd 7377 9abb 3f54 ba3d 9454 57bd
000001a0: 1ef5 a5bd 4c41 55bd cdc1 17bd 54f4 953c
000001b0: 2856 9abd 7fd8 e2bd 99b8 683d 03da 753d
000001c0: de61 adbc 8b6a c33d a48b a5bd 13b2 2a3d
000001d0: 2e14 d63a 4572 debd 91fb 1f3d 8206 c1bd
000001e0: f9a0 b93d c1ac 3e3d b754 b4bd 0173 88bc
000001f0: f42a 0a3d 14ad d1bd b2f4 963d 72c0 833d
00000200: 567d e1bd 325d d3bd bf05 c43c 8129 85bd
00000210: b404 c4bd bcda 8b3c c26d 863d 0e02 a33d
00000220: a8b3 133d f1d6 83bd 0fa0 bcbd c42f b53d
00000230: 39a7 d8bd be6a b2bc eae5 c53b 692a 3bbd
00000240: 488b c4bd 71b2 4e3d ef78 45bd e60e a53d
00000250: bf18 89bd 9867 18bd 42bf b4bd 32b9 a6bd
00000260: 1203 23bd a60e b2bd 67c2 4a3d a94c be3c
00000270: 2318 18bd c8e5 b73c 94b1 b03d 18bc 19bd
00000280: a94f 3fbb 59f3 87bc 71bc d0bd f777 ccbd
00000290: 4890 183d 3327 6d3d 39c5 cbbc 74fd 423d
000002a0: a88d 3b3d a6e7 c23d 20df 22bd d2a4 533d
000002b0: 456b 0c3d 8f4a 69bc 4309 c53b e87d 263c
000002c0: ac70 04bd 5f5d bb3b d1ff a73d c299 f03c
000002d0: fd4e 853d 6605 b93d 8ffa 30bd 2ac7 a83b
000002e0: 9bf3 8bbd bd67 ac3d 2610 7abd a6d7 f93c
000002f0: 69d9 a63d 6d71 ae3d 94bf 943d 96dc 8e3d
00000300: 5864 883c 065e 04bd dcf8 0e3b 3ef1 a43c
00000310: 53ac 3ebd 80e0 9cbd 6136 0a3d 7e52 babd
00000320: 8b66 2cbd 3ca6 54bd 9e52 e4bc 3e4c d93d
00000330: f6ba babd 3350 b93d af3d 4f3d 20b3 d43d
00000340: 0213 203d 59d1 183a bbf0 4ebd 75ab 96bc
00000350: 9f26 2b3d 5d5d bbbc 7d51 6dbc cc7b 83bd
00000360: b880 28bc 6d61 eebc 4c79 15bc 7ce1 d43d
00000370: 7935 353d 0cd0 a63d c49f 903d b3b9 a1bd
00000380: e71e 0a3d 0dd9 a2bc c05f 743d 1a9b 503d
00000390: 2939 50bd f849 8dbd 8f4d 52bd bd8e 2ebd
000003a0: 11d5 69bd a793 763c d2c5 ea3b 17aa cebd
000003b0: 1532 bf3d bde7 4f3d 3780 723d 74d7 e2bc
000003c0: 5e88 593d d4d9 a2bd 0e93 5c3c 5b28 08bc
000003d0: 05a3 7fbd 5e38 cb3d 0c2e 863d 977c bb3d
000003e0: 9cdd 503d 9c97 4d3d dd9f 933d 2515 703b
000003f0: 59ea fabc a3fb c6bd 85e6 c33b 52f2 d63d
-0.12140556 -0.0029667304 -0.029450385 0.022682786 0.087589264 -0.05072878 0.024610624 0.010704671
0.073130794 -0.09848467 0.025352908 0.017356085 0.10132233 -0.06082257 -0.06406397 -0.08724837
-0.080410585 -0.0018385083 -0.041089445 0.048836097 0.057953224 0.13408203 0.060704477 0.03162859
0.09025823 0.13230413 0.056292687 -0.07662717 0.04067272 -0.05231363 0.103847116 0.045846645
-0.056180708 -0.046455927 -0.049561348 0.11614506 0.023471612 -0.03306162 0.055113215 -0.08531616
-0.01929836 0.0041663004 -0.012753903 0.11847313 0.08662986 0.018818604 0.028599517 -0.024391308
0.028123777 -0.06574598 -0.059567872 0.12405088 0.09329066 0.09423673 -0.054295518 -0.07144314
0.0493799 0.03633623 -0.117987104 0.08979409 -0.030153416 0.09916398 -0.009455248 -0.079189055
0.09379352 -0.0859722 -0.0965229 -0.10531188 0.028333113 -0.006651854 0.044945966 -0.018112965
-0.05668472 0.11590389 -0.035973642 0.040006343 -0.056674063 0.071380906 0.030565605 -0.039736114
-0.07686005 -0.025461206 -0.049233 0.09342635 -0.015969055 0.033203 -0.037512604 -0.068473525
-0.08109238 0.021998726 -0.038415976 0.012547474 0.09972116 -0.013265994 0.00896967 0.021002784
-0.08125709 -0.016458336 -0.046907872 0.040862974 -0.10202047 -0.0047139465 0.090981 -0.052570894
-0.08103393 -0.052064225 -0.037050057 0.018304981 -0.07535964 -0.110764496 0.05681667 0.060022365
-0.02116483 0.09541806 -0.08083275 0.04167373 0.0016332918 -0.10861639 0.03905827 -0.094250694
0.09063906 0.04655147 -0.088052206 -0.0166564 0.03373237 -0.1023809 0.07370891 0.064331904
-0.11010234 -0.1032051 0.023928521 -0.06502057 -0.095712095 0.017072074 0.065639034 0.07959376
0.036060005 -0.06437481 -0.09210216 0.08847001 -0.1057877 -0.021779414 0.006039371 -0.045694742
-0.09596878 0.050463144 -0.048211034 0.08059482 -0.06694173 -0.03720817 -0.08825542 -0.08140792
-0.03979785 -0.086942 0.049501803 0.023229914 -0.037132394 0.022448435 0.0862762 -0.037532896
-0.0029191768 -0.01659553 -0.10192192 -0.09983819 0.037246972 0.05789871 -0.024874317 0.047604993
0.04578939 0.0951684 -0.03976357 0.051670857 0.034281988 -0.014238968 0.006013067 0.010161854
-0.032334015 0.005717918 0.0820309 0.029370192 0.065092064 0.09034233 -0.0432077 0.0051506953
-0.068335734 0.08418224 -0.061050557 0.030498337 0.081469364 0.08517728 0.07263103 0.06975667
0.01664941 -0.03231623 0.0021815812 0.020134564 -0.04655106 -0.076600075 0.033743266 -0.090977654
-0.04208998 -0.051916346 -0.027871426 0.10610245 -0.09117691 0.090485 0.050595935 0.10385728
0.039080627 0.0005829535 -0.050522547 -0.018392304 0.04178488 -0.022871668 -0.01448476 -0.06420097
-0.010284595 -0.02909919 -0.009123158 0.1039457 0.04424045 0.081451505 0.07061723 -0.078967474
0.033720877 -0.019878889 0.059661627 0.050929166 -0.050835762 -0.06898874 -0.051343497 -0.042616595
-0.05708796 0.0150498515 0.0071646953 -0.10091036 0.09335724 0.050758112 0.059204306 -0.027690627
0.053108566 -0.07951704 0.013462795 -0.008310403 -0.062411327 0.099228606 0.065517515 0.09154623
0.050992593 0.050193414 0.07208226 0.0036633697 -0.030629324 -0.09715965 0.005978408 0.10495438

net.6.bias f4 [64]
00000000: 4f78 9abd 1b39 8a3d fb6d 84bd 8875 89bd
00000010: 6856 74bd 61d5 90bd 67c8 8ebd 1a7d 82bc
00000020: d8a5 b23b 8da9 313d a6c0 1cbd 6869 933d
00000030: da9d 0ebd 6476 713d 230b b73d 0a8b 44bd
00000040: 9fbf a8bd 60e4 9abd 2d34 66bd f586 54bd
00000050: 682e 913d 618c 8c3d 0702 b7bd 538d b03d
00000060: 8401 b9bd 5ce9 c23d ab13 bb3c c84c dfbc
00000070: b460 c3bd fd3a 31bc b559 be3d f335 d1bd
00000080: 3888 b63d c0d1 b3bd c642 4d3c 5dd2 eb3c
00000090: f2c2 ed3b 969d 55bd f83b 6fbd ae21 a23d
000000a0: 77c4 37bd 4e3c 9cbd f58b 2abc 63ad fcbc
000000b0: c4c1 303d c0c3 9abd 1ca3 aebd e294 d0bc
000000c0: 1a81 80bd 7f28 c5bd 10de 663d e6d1 87bd
000000d0: 4a26 ab3c 2e41 d7bb 0e9e 6bbc 22f9 70bd
000000e0: 28cf d2bd 8a01 363c a927 8ebd 1ef4 b7bd
000000f0: d0de 33bd 1a44 823d 4cdb 3f3d 0380 d0bd
-0.07542478 0.06749173 -0.064662896 -0.067118704 -0.059652716 -0.07071949 -0.069718175 -0.015928794
0.005451899 0.043374587 -0.03826966 0.07197839 -0.034818508 0.058950797 0.08937671 -0.04798416
-0.08239674 -0.0756309 -0.056202102 -0.051886518 0.070889294 0.06862713 -0.089359336 0.086207055
-0.09033492 0.09517166 0.022836527 -0.027258292 -0.09539929 -0.010817287 0.09294454 -0.10215368
0.089127004 -0.08780241 0.012528127 0.028786832 0.0072559053 -0.05215224 -0.0584068 0.0791658
-0.044865098 -0.0762869 -0.010409345 -0.030844396 0.04315354 -0.075568676 -0.085272044 -0.025461618
-0.06274624 -0.09626865 0.05636412 -0.06631832 0.020892281 -0.0065690493 -0.014380945 -0.05883134
-0.10293418 0.011108765 -0.06941158 -0.089821085 -0.043913662 0.063606456 0.046839997 -0.10180666

net.10.weight f4 [2, 64]
00000000: 0dee bf3b 2dca 34bd fbb8 fc3d 9126 ecbd
00000010: d83d aebd e0d7 88bd 1572 1a3c bea6 99bb
00000020: edca db3c b2a9 ac3d 421d 53bd efcc e33d
00000030: 2cf1 96bd 5bde e9bd 82c3 d6bd 0259 1fbd
00000040: 5d10 9c3d 40b1 c03d 81af d53d 725d 89bd
00000050: 81b0 debc 606a 023d 19a2 483d a177 4e3d
00000060: e8c0 7b3d 9244 8f3d 664d e03d aa13 b43d
00000070: 6f15 c1bd 0102 83bc 8eeb ab3c 8c99 b13c
00000080: ef00 283d d01b ac3d 3094 9ebc 4d54 7dbd
00000090: d510 87bd 04f2 abbd 1fef 9d3d db41 983d
000000a0: aa11 30bd 9f0a b0bd b47f 96bd fcb0 e3bd
000000b0: 34a3 793d d43c c1bd 1dab de3d 9b88 c6bd
000000c0: a1b7 b0bd d144 7c3d f83a 35bd 7f13 873d
000000d0: 533a 813c ab63 cd3d d6dd b23d 7a93 cdbc
000000e0: 694e 3fbc 2647 cfbd b688 003d 6fdf 30b8
000000f0: 6257 943c 78a9 5f3d 9a08 073d de43 d93d
00000100: d743 c23d 8aec 40bd cdc9 1c3d 59a2 d0bd
00000110: 4fdf 0b3e 8250 803d ae61 3b3c 9aa8 45bd
00000120: 9a6b 6cbd c325 c0bd 26d5 20bd 40f7 ef38
00000130: 0444 c5bc ecf5 773d 862a b13c be7c 73bd
00000140: 7b33 d63d c74a aa3d 67f3 7fbb 9245 75bc
00000150: 927d 15bd 7630 9f3b f57d dabd 5e38 a5bd
00000160: 1ead 83bd b294 d23c 97e5 443c 0486 56bd
00000170: 367e d7bc b61c 0abd ddab 83bd d710 273c
00000180: de64 763c 7372 133d ba40 90bc 8964 d8bd
00000190: d833 023d 792a 23bd 57be e93c d3fe e23d
000001a0: fdd7 c43d cf7b f2bc c722 243d 1453 f73d
000001b0: 4f7b d73d fbbf f13c 1b31 9c3d 0bc3 dcbd
000001c0: 5e1b fbbd ff94 c6bd 44e4 c4bd e1ba 9cbc
000001d0: c0fe 1cbd ead9 403d 418e 43bc 311b d5bd
000001e0: d312 b7bd d41f e53d 128d 3cbe e4ec e83d
000001f0: 9458 cfbd 2260 8ebc d192 d33c 2ccd d63c
0.0058572353 -0.044138122 0.1233997 -0.115307935 -0.085078895 -0.066818 0.009426613 -0.0046890667
0.026830161 0.08430804 -0.051541574 0.11123072 -0.07370219 -0.11419364 -0.10486509 -0.038903244
0.076203085 0.09408808 0.10433865 -0.067072764 -0.027183773 0.03183973 0.048982713 0.050407056
0.061463267 0.069955006 0.109522626 0.08792813 -0.09427916 -0.015992166 0.020986345 0.021679662
0.041016515 0.08403742 -0.01935777 -0.061847974 -0.06595007 -0.0839577 0.07711624 0.07434436
-0.042985596 -0.08595776 -0.07348576 -0.111177415 0.06094666 -0.0943543 0.10872481 -0.09694024
-0.086287744 0.061589066 -0.04424569 0.065955155 0.015774881 0.10028776 0.08733718 -0.025094736
-0.011676409 -0.10120992 0.031380378 -4.216976e-05 0.018108074 0.054604977 0.032967187 0.10608648
0.09485596 -0.04710058 0.03827839 -0.10187215 0.13659404 0.06265356 0.011436863 -0.048256494
-0.057719804 -0.093822025 -0.039265774 0.00011442462 -0.024080284 0.060537264 0.021626722 -0.059445135
0.10459038 0.08315044 -0.0039054991 -0.0149702 -0.036496706 0.004858072 -0.10668556 -0.08067392
-0.06429504 0.02570567 0.012017629 -0.0523739 -0.0263053 -0.033718787 -0.06429265 0.010196886
0.015038697 0.03599782 -0.017608989 -0.105660506 0.031787723 -0.039835427 0.028533144 0.1108376
0.09611509 -0.029600052 0.04007223 0.12076393 0.10521566 0.029510489 0.076265536 -0.10779389
-0.12261079 -0.096963875 -0.09613851 -0.01913208 -0.038328886 0.04708282 -0.011935771 -0.10405577
-0.08939137 0.11187711 -0.18413189 0.11373308 -0.10124317 -0.017379824 0.025826843 0.02622088

net.10.bias f4 [2]
00000000: 5a46 9fbd 3e85 babd
-0.0777709 -0.09107445
